tensorflow/lite/micro/examples/bug_report_conv2d/models/bug_report_conv2d.tflite (tflite, 3632 bytes, 2 tensors)

model/conv2d/BiasAdd/ReadVariableOp1 i1 [30] scale=3.9215684e-09 zero_point=0
0.0 0.0 0.0 0.0 0.0 0.0 0.0 0.0
0.0 0.0 0.0 0.0 0.0 0.0 0.0 0.0
0.0 0.0 0.0 0.0 0.0 0.0 0.0 0.0
0.0 0.0 0.0 0.0 0.0 0.0
00000000: 0000 0000 0000 0000 0000 0000 0000 0000
00000010: 0000 0000 0000 0000 0000 0000 0000

model/conv2d/Conv2D i1 [30, 1, 5, 3]
-6 -39 -24 5 -87 -92 -75 104
-84 -104 51 127 71 -113 -17 62
-127 99 92 40 114 -33 -123 109
-92 -113 41 63 -24 58 -15 -36
-74 39 -127 -83 -70 -60 -94 -48
-111 18 -19 61 119 -35 -115 57
-96 -120 -39 -127 77 92 7 8
-96 -111 77 115 -25 13 -78 -111
14 65 -19 102 -52 -60 -16 15
-40 -127 -98 -108 127 47 96 -28
-107 63 110 30 -99 -12 83 3
95 -96 -101 25 -127 123 -58 -64
-31 4 -89 -81 -103 1 108 -98
113 115 2 111 -44 -63 -14 -121
45 -1 -121 127 72 52 -100 74
63 -28 35 50 -99 -15 127 9
47 112 118 -69 -45 87 -10 127
-24 -33 64 68 118 123 -72 93
61 8 81 -119 -25 64 -55 -108
93 82 68 -63 49 -24 106 48
-127 -5 -80 53 110 -56 32 -48
125 -96 -39 86 -70 35 -69 -127
-124 -28 -92 -114 -4 -73 127 96
22 9 -11 -41 69 107 -120 57
-22 -37 -91 23 -18 9 -71 53
-119 49 -2 -18 -89 29 17 37
-104 -127 88 1 123 122 -17 122
-36 -127 -29 -56 95 -85 -76 -62
23 -13 -127 -23 -65 19 -43 -70
113 93 97 -85 95 47 89 -38
127 8 109 -75 -5 26 -126 -19
-6 74 113 -71 -95 30 -11 -107
00000000: fad9 e805 a9a4 b568 ac98 337f 478f ef3e
00000010: 8163 5c28 72df 856d a48f 293f e83a f1dc
00000020: b627 81ad bac4 a2d0 9112 ed3d 77dd 8d39
00000030: a088 d981 4d5c 0708 a091 4d73 e70d b291
00000040: 0e41 ed66 ccc4 f00f d881 9e94 7f2f 60e4
00000050: 953f 6e1e 9df4 5303 5fa0 9b19 817b c6c0
00000060: e104 a7af 9901 6c9e 7173 026f d4c1 f287
00000070: 2dff 877f 4834 9c4a 3fe4 2332 9df1 7f09
00000080: 2f70 76bb d357 f67f e8df 4044 767b b85d
00000090: 3d08 5189 e740 c994 5d52 44c1 31e8 6a30
000000a0: 81fb b035 6ec8 20d0 7da0 d956 ba23 bb81
000000b0: 84e4 a48e fcb7 7f60 1609 f5d7 456b 8839
000000c0: eadb a517 ee09 b935 8931 feee a71d 1125
000000d0: 9881 5801 7b7a ef7a dc81 e3c8 5fab b4c2
000000e0: 17f3 81e9 bf13 d5ba 715d 61ab 5f2f 59da
000000f0: 7f08 6db5 fb1a 82ed fa4a 71b9 a11e f595
